…
[21:45:47.326847] Testing dataset size: 920
[21:45:47.326907] Sampler_train: <torch.utils.data.distributed.DistributedSampler object at 0x7f3923692020>
[21:45:47.326931] Sampler_test: <torch.utils.data.distributed.DistributedSampler object at 0x7f3923690c40>
[21:45:53.009377] Loaded ConvNeXt backbone weights from '/DATA/shared1/MsFreB/MsFreB/pretrained-weights/convnextv2_base_1k_224_ema.pt'.
[21:45:53.009458] Unexpected keys: ['norm.bias', 'norm.weight', 'head.bias', 'head.weight']
[21:45:53.141540] Model:
Msfreb(
  (encoder_net): ConvNeXtV2(
    (downsample_layers): ModuleList(
      (0): Sequential(
        (0): Conv2d(3, 128, kernel_size=(4, 4), stride=(4, 4))
        (1): LayerNorm()
      )
      (1): Sequential(
        (0): LayerNorm()
        (1): Conv2d(128, 256, kernel_size=(2, 2), stride=(2, 2))
      )
      (2): Sequential(
        (0): LayerNorm()
        (1): Conv2d(256, 512, kernel_size=(2, 2), stride=(2, 2))
      )
      (3): Sequential(
        (0): LayerNorm()
        (1): Conv2d(512, 1024, kernel_size=(2, 2), stride=(2, 2))
      )
    )
    (stages): ModuleList(
      (0): Sequential(
        (0): Block(
          (dwconv): Conv2d(128, 128, kernel_size=(7, 7), stride=(1, 1), padding=(3, 3), groups=128)
          (norm): LayerNorm()
          (pwconv1): Linear(in_features=128, out_features=512, bias=True)
          (act): GELU(approximate='none')
          (grn): GRN()
          (pwconv2): Linear(in_features=512, out_features=128, bias=True)
          (drop_path): Identity()
        )
        (1): Block(
          (dwconv): Conv2d(128, 128, kernel_size=(7, 7), stride=(1, 1), padding=(3, 3), groups=128)
          (norm): LayerNorm()
          (pwconv1): Linear(in_features=128, out_features=512, bias=True)
          (act): GELU(approximate='none')
          (grn): GRN()
          (pwconv2): Linear(in_features=512, out_features=128, bias=True)
          (drop_path): Identity()
        )
        (2): Block(
          (dwconv): Conv2d(128, 128, kernel_size=(7, 7), stride=(1, 1), padding=(3, 3), groups=128)
          (norm): LayerNorm()
          (pwconv1): Linear(in_features=128, out_features=512, bias=True)
          (act): GELU(approximate='none')
          (grn): GRN()
          (pwconv2): Linear(in_features=512, out_features=128, bias=True)
          (drop_path): Identity()
        )
      )
      (1): Sequential(
        (0): Block(
          (dwconv): Conv2d(256, 256, kernel_size=(7, 7), stride=(1, 1), padding=(3, 3), groups=256)
          (norm): LayerNorm()
          (pwconv1): Linear(in_features=256, out_features=1024, bias=True)
          (act): GELU(approximate='none')
          (grn): GRN()
          (pwconv2): Linear(in_features=1024, out_features=256, bias=True)
          (drop_path): Identity()
        )
        (1): Block(
          (dwconv): Conv2d(256, 256, kernel_size=(7, 7), stride=(1, 1), padding=(3, 3), groups=256)
          (norm): LayerNorm()
          (pwconv1): Linear(in_features=256, out_features=1024, bias=True)
          (act): GELU(approximate='none')
          (grn): GRN()
          (pwconv2): Linear(in_features=1024, out_features=256, bias=True)
          (drop_path): Identity()
        )
        (2): Block(
          (dwconv): Conv2d(256, 256, kernel_size=(7, 7), stride=(1, 1), padding=(3, 3), groups=256)
          (norm): LayerNorm()
          (pwconv1): Linear(in_features=256, out_features=1024, bias=True)
          (act): GELU(approximate='none')
          (grn): GRN()
          (pwconv2): Linear(in_features=1024, out_features=256, bias=True)
          (drop_path): Identity()
        )
      )
      (2): Sequential(
        (0): Block(
          (dwconv): Conv2d(512, 512, kernel_size=(7, 7), stride=(1, 1), padding=(3, 3), groups=512)
          (norm): LayerNorm()
          (pwconv1): Linear(in_features=512, out_features=2048, bias=True)
          (act): GELU(approximate='none')
          (grn): GRN()
          (pwconv2): Linear(in_features=2048, out_features=512, bias=True)
          (drop_path): Identity()
        )
        (1): Block(
          (dwconv): Conv2d(512, 512, kernel_size=(7, 7), stride=(1, 1), padding=(3, 3), groups=512)
          (norm): LayerNorm()
          (pwconv1): Linear(in_features=512, out_features=2048, bias=True)
          (act): GELU(approximate='none')
          (grn): GRN()
          (pwconv2): Linear(in_features=2048, out_features=512, bias=True)
          (drop_path): Identity()
        )
        (2): Block(
          (dwconv): Conv2d(512, 512, kernel_size=(7, 7), stride=(1, 1), padding=(3, 3), groups=512)
          (norm): LayerNorm()
          (pwconv1): Linear(in_features=512, out_features=2048, bias=True)
          (act): GELU(approximate='none')
          (grn): GRN()
          (pwconv2): Linear(in_features=2048, out_features=512, bias=True)
          (drop_path): Identity()
        )
        (3): Block(
          (dwconv): Conv2d(512, 512, kernel_size=(7, 7), stride=(1, 1), padding=(3, 3), groups=512)
          (norm): LayerNorm()
          (pwconv1): Linear(in_features=512, out_features=2048, bias=True)
          (act): GELU(approximate='none')
          (grn): GRN()
          (pwconv2): Linear(in_features=2048, out_features=512, bias=True)
          (drop_path): Identity()
        )
        (4): Block(
          (dwconv): Conv2d(512, 512, kernel_size=(7, 7), stride=(1, 1), padding=(3, 3), groups=512)
          (norm): LayerNorm()
          (pwconv1): Linear(in_features=512, out_features=2048, bias=True)
          (act): GELU(approximate='none')
          (grn): GRN()
          (pwconv2): Linear(in_features=2048, out_features=512, bias=True)
          (drop_path): Identity()
        )
        (5): Block(
          (dwconv): Conv2d(512, 512, kernel_size=(7, 7), stride=(1, 1), padding=(3, 3), groups=512)
          (norm): LayerNorm()
          (pwconv1): Linear(in_features=512, out_features=2048, bias=True)
          (act): GELU(approximate='none')
          (grn): GRN()
          (pwconv2): Linear(in_features=2048, out_features=512, bias=True)
          (drop_path): Identity()
        )
        (6): Block(
          (dwconv): Conv2d(512, 512, kernel_size=(7, 7), stride=(1, 1), padding=(3, 3), groups=512)
          (norm): LayerNorm()
          (pwconv1): Linear(in_features=512, out_features=2048, bias=True)
          (act): GELU(approximate='none')
          (grn): GRN()
          (pwconv2): Linear(in_features=2048, out_features=512, bias=True)
          (drop_path): Identity()
        )
        (7): Block(
          (dwconv): Conv2d(512, 512, kernel_size=(7, 7), stride=(1, 1), padding=(3, 3), groups=512)
          (norm): LayerNorm()
          (pwconv1): Linear(in_features=512, out_features=2048, bias=True)
          (act): GELU(approximate='none')
          (grn): GRN()
          (pwconv2): Linear(in_features=2048, out_features=512, bias=True)
          (drop_path): Identity()
        )
        (8): Block(
          (dwconv): Conv2d(512, 512, kernel_size=(7, 7), stride=(1, 1), padding=(3, 3), groups=512)
          (norm): LayerNorm()
          (pwconv1): Linear(in_features=512, out_features=2048, bias=True)
          (act): GELU(approximate='none')
          (grn): GRN()
          (pwconv2): Linear(in_features=2048, out_features=512, bias=True)
          (drop_path): Identity()
        )
        (9): Block(
          (dwconv): Conv2d(512, 512, kernel_size=(7, 7), stride=(1, 1), padding=(3, 3), groups=512)
          (norm): LayerNorm()
          (pwconv1): Linear(in_features=512, out_features=2048, bias=True)
          (act): GELU(approximate='none')
          (grn): GRN()
          (pwconv2): Linear(in_features=2048, out_features=512, bias=True)
          (drop_path): Identity()
        )
        (10): Block(
          (dwconv): Conv2d(512, 512, kernel_size=(7, 7), stride=(1, 1), padding=(3, 3), groups=512)
          (norm): LayerNorm()
          (pwconv1): Linear(in_features=512, out_features=2048, bias=True)
          (act): GELU(approximate='none')
          (grn): GRN()
          (pwconv2): Linear(in_features=2048, out_features=512, bias=True)
          (drop_path): Identity()
        )
        (11): Block(
          (dwconv): Conv2d(512, 512, kernel_size=(7, 7), stride=(1, 1), padding=(3, 3), groups=512)
          (norm): LayerNorm()
          (pwconv1): Linear(in_features=512, out_features=2048, bias=True)
          (act): GELU(approximate='none')
          (grn): GRN()
          (pwconv2): Linear(in_features=2048, out_features=512, bias=True)
          (drop_path): Identity()
        )
        (12): Block(
          (dwconv): Conv2d(512, 512, kernel_size=(7, 7), stride=(1, 1), padding=(3, 3), groups=512)
          (norm): LayerNorm()
          (pwconv1): Linear(in_features=512, out_features=2048, bias=True)
          (act): GELU(approximate='none')
          (grn): GRN()
          (pwconv2): Linear(in_features=2048, out_features=512, bias=True)
          (drop_path): Identity()
        )
        (13): Block(
          (dwconv): Conv2d(512, 512, kernel_size=(7, 7), stride=(1, 1), padding=(3, 3), groups=512)
          (norm): LayerNorm()
          (pwconv1): Linear(in_features=512, out_features=2048, bias=True)
          (act): GELU(approximate='none')
          (grn): GRN()
          (pwconv2): Linear(in_features=2048, out_features=512, bias=True)
          (drop_path): Identity()
        )
        (14): Block(
          (dwconv): Conv2d(512, 512, kernel_size=(7, 7), stride=(1, 1), padding=(3, 3), groups=512)
          (norm): LayerNorm()
          (pwconv1): Linear(in_features=512, out_features=2048, bias=True)
          (act): GELU(approximate='none')
          (grn): GRN()
          (pwconv2): Linear(in_features=2048, out_features=512, bias=True)
          (drop_path): Identity()
        )
        (15): Block(
          (dwconv): Conv2d(512, 512, kernel_size=(7, 7), stride=(1, 1), padding=(3, 3), groups=512)
          (norm): LayerNorm()
          (pwconv1): Linear(in_features=512, out_features=2048, bias=True)
          (act): GELU(approximate='none')
          (grn): GRN()
          (pwconv2): Linear(in_features=2048, out_features=512, bias=True)
          (drop_path): Identity()
        )
        (16): Block(
          (dwconv): Conv2d(512, 512, kernel_size=(7, 7), stride=(1, 1), padding=(3, 3), groups=512)
          (norm): LayerNorm()
          (pwconv1): Linear(in_features=512, out_features=2048, bias=True)
          (act): GELU(approximate='none')
          (grn): GRN()
          (pwconv2): Linear(in_features=2048, out_features=512, bias=True)
          (drop_path): Identity()
        )
        (17): Block(
          (dwconv): Conv2d(512, 512, kernel_size=(7, 7), stride=(1, 1), padding=(3, 3), groups=512)
          (norm): LayerNorm()
          (pwconv1): Linear(in_features=512, out_features=2048, bias=True)
          (act): GELU(approximate='none')
          (grn): GRN()
          (pwconv2): Linear(in_features=2048, out_features=512, bias=True)
          (drop_path): Identity()
        )
        (18): Block(
          (dwconv): Conv2d(512, 512, kernel_size=(7, 7), stride=(1, 1), padding=(3, 3), groups=512)
          (norm): LayerNorm()
          (pwconv1): Linear(in_features=512, out_features=2048, bias=True)
          (act): GELU(approximate='none')
          (grn): GRN()
          (pwconv2): Linear(in_features=2048, out_features=512, bias=True)
          (drop_path): Identity()
        )
        (19): Block(
          (dwconv): Conv2d(512, 512, kernel_size=(7, 7), stride=(1, 1), padding=(3, 3), groups=512)
          (norm): LayerNorm()
          (pwconv1): Linear(in_features=512, out_features=2048, bias=True)
          (act): GELU(approximate='none')
          (grn): GRN()
          (pwconv2): Linear(in_features=2048, out_features=512, bias=True)
          (drop_path): Identity()
        )
        (20): Block(
          (dwconv): Conv2d(512, 512, kernel_size=(7, 7), stride=(1, 1), padding=(3, 3), groups=512)
          (norm): LayerNorm()
          (pwconv1): Linear(in_features=512, out_features=2048, bias=True)
          (act): GELU(approximate='none')
          (grn): GRN()
          (pwconv2): Linear(in_features=2048, out_features=512, bias=True)
          (drop_path): Identity()
        )
        (21): Block(
          (dwconv): Conv2d(512, 512, kernel_size=(7, 7), stride=(1, 1), padding=(3, 3), groups=512)
          (norm): LayerNorm()
          (pwconv1): Linear(in_features=512, out_features=2048, bias=True)
          (act): GELU(approximate='none')
          (grn): GRN()
          (pwconv2): Linear(in_features=2048, out_features=512, bias=True)
          (drop_path): Identity()
        )
        (22): Block(
          (dwconv): Conv2d(512, 512, kernel_size=(7, 7), stride=(1, 1), padding=(3, 3), groups=512)
          (norm): LayerNorm()
          (pwconv1): Linear(in_features=512, out_features=2048, bias=True)
          (act): GELU(approximate='none')
          (grn): GRN()
          (pwconv2): Linear(in_features=2048, out_features=512, bias=True)
          (drop_path): Identity()
        )
        (23): Block(
          (dwconv): Conv2d(512, 512, kernel_size=(7, 7), stride=(1, 1), padding=(3, 3), groups=512)
          (norm): LayerNorm()
          (pwconv1): Linear(in_features=512, out_features=2048, bias=True)
          (act): GELU(approximate='none')
          (grn): GRN()
          (pwconv2): Linear(in_features=2048, out_features=512, bias=True)
          (drop_path): Identity()
        )
        (24): Block(
          (dwconv): Conv2d(512, 512, kernel_size=(7, 7), stride=(1, 1), padding=(3, 3), groups=512)
          (norm): LayerNorm()
          (pwconv1): Linear(in_features=512, out_features=2048, bias=True)
          (act): GELU(approximate='none')
          (grn): GRN()
          (pwconv2): Linear(in_features=2048, out_features=512, bias=True)
          (drop_path): Identity()
        )
        (25): Block(
          (dwconv): Conv2d(512, 512, kernel_size=(7, 7), stride=(1, 1), padding=(3, 3), groups=512)
          (norm): LayerNorm()
          (pwconv1): Linear(in_features=512, out_features=2048, bias=True)
          (act): GELU(approximate='none')
          (grn): GRN()
          (pwconv2): Linear(in_features=2048, out_features=512, bias=True)
          (drop_path): Identity()
        )
        (26): Block(
          (dwconv): Conv2d(512, 512, kernel_size=(7, 7), stride=(1, 1), padding=(3, 3), groups=512)
          (norm): LayerNorm()
          (pwconv1): Linear(in_features=512, out_features=2048, bias=True)
          (act): GELU(approximate='none')
          (grn): GRN()
          (pwconv2): Linear(in_features=2048, out_features=512, bias=True)
          (drop_path): Identity()
        )
      )
      (3): Sequential(
        (0): Block(
          (dwconv): Conv2d(1024, 1024, kernel_size=(7, 7), stride=(1, 1), padding=(3, 3), groups=1024)
          (norm): LayerNorm()
          (pwconv1): Linear(in_features=1024, out_features=4096, bias=True)
          (act): GELU(approximate='none')
          (grn): GRN()
          (pwconv2): Linear(in_features=4096, out_features=1024, bias=True)
          (drop_path): Identity()
        )
        (1): Block(
          (dwconv): Conv2d(1024, 1024, kernel_size=(7, 7), stride=(1, 1), padding=(3, 3), groups=1024)
          (norm): LayerNorm()
          (pwconv1): Linear(in_features=1024, out_features=4096, bias=True)
          (act): GELU(approximate='none')
          (grn): GRN()
          (pwconv2): Linear(in_features=4096, out_features=1024, bias=True)
          (drop_path): Identity()
        )
        (2): Block(
          (dwconv): Conv2d(1024, 1024, kernel_size=(7, 7), stride=(1, 1), padding=(3, 3), groups=1024)
          (norm): LayerNorm()
          (pwconv1): Linear(in_features=1024, out_features=4096, bias=True)
          (act): GELU(approximate='none')
          (grn): GRN()
          (pwconv2): Linear(in_features=4096, out_features=1024, bias=True)
          (drop_path): Identity()
        )
      )
    )
    (head): Identity()
  )
  (ppm_module): PPM(
    (pool_branches): ModuleList(
      (0): Sequential(
        (0): AdaptiveAvgPool2d(output_size=1)
        (1): Conv2d(1024, 256, kernel_size=(1, 1), stride=(1, 1), bias=False)
        (2): FlexibleNorm(
          (norm): GroupNorm(32, 256, eps=1e-05, affine=True)
        )
        (3): ReLU(inplace=True)
      )
      (1): Sequential(
        (0): AdaptiveAvgPool2d(output_size=2)
        (1): Conv2d(1024, 256, kernel_size=(1, 1), stride=(1, 1), bias=False)
        (2): FlexibleNorm(
          (norm): GroupNorm(32, 256, eps=1e-05, affine=True)
        )
        (3): ReLU(inplace=True)
      )
      (2): Sequential(
        (0): AdaptiveAvgPool2d(output_size=3)
        (1): Conv2d(1024, 256, kernel_size=(1, 1), stride=(1, 1), bias=False)
        (2): FlexibleNorm(
          (norm): GroupNorm(32, 256, eps=1e-05, affine=True)
        )
        (3): ReLU(inplace=True)
      )
      (3): Sequential(
        (0): AdaptiveAvgPool2d(output_size=6)
        (1): Conv2d(1024, 256, kernel_size=(1, 1), stride=(1, 1), bias=False)
        (2): FlexibleNorm(
          (norm): GroupNorm(32, 256, eps=1e-05, affine=True)
        )
        (3): ReLU(inplace=True)
      )
    )
    (fusion_conv): Sequential(
      (0): Conv2d(2048, 256, kernel_size=(3, 3), stride=(1, 1), padding=(1, 1), bias=False)
      (1): FlexibleNorm(
        (norm): GroupNorm(32, 256, eps=1e-05, affine=True)
      )
      (2): ReLU(inplace=True)
    )
  )
  (c5_downsample): Sequential(
    (0): Conv2d(1024, 1024, kernel_size=(3, 3), stride=(2, 2), padding=(1, 1))
    (1): FlexibleNorm(
      (norm): GroupNorm(32, 1024, eps=1e-05, affine=True)
    )
    (2): ReLU(inplace=True)
    (3): Conv2d(1024, 1024, kernel_size=(3, 3), stride=(2, 2), padding=(1, 1))
    (4): FlexibleNorm(
      (norm): GroupNorm(32, 1024, eps=1e-05, affine=True)
    )
    (5): ReLU(inplace=True)
  )
  (ppm_to_c5_channels_conv): Conv2d(256, 1024, kernel_size=(1, 1), stride=(1, 1))
  (wavelet_c3): ImprovedWaveletEnhancement(
    (freq_allocator): AdaptiveFrequencyAllocation(
      (freq_allocator): Sequential(
        (0): AdaptiveAvgPool2d(output_size=1)
        (1): Conv2d(256, 64, kernel_size=(1, 1), stride=(1, 1))
        (2): ReLU(inplace=True)
        (3): Conv2d(64, 2, kernel_size=(1, 1), stride=(1, 1))
        (4): Softmax(dim=1)
      )
    )
    (dwt): SimplifiedDWT()
    (hf_enhancer): Sequential(
      (0): Conv2d(256, 64, kernel_size=(1, 1), stride=(1, 1))
      (1): SyncBatchNorm(64, eps=1e-05, momentum=0.1, affine=True, track_running_stats=True)
      (2): ReLU(inplace=True)
      (3): Conv2d(64, 256, kernel_size=(3, 3), stride=(1, 1), padding=(1, 1))
      (4): SyncBatchNorm(256, eps=1e-05, momentum=0.1, affine=True, track_running_stats=True)
      (5): Sigmoid()
    )
    (lf_enhancer): Sequential(
      (0): Conv2d(256, 64, kernel_size=(1, 1), stride=(1, 1))
      (1): SyncBatchNorm(64, eps=1e-05, momentum=0.1, affine=True, track_running_stats=True)
      (2): ReLU(inplace=True)
      (3): Conv2d(64, 256, kernel_size=(3, 3), stride=(1, 1), padding=(1, 1))
      (4): SyncBatchNorm(256, eps=1e-05, momentum=0.1, affine=True, track_running_stats=True)
      (5): Sigmoid()
    )
    (feature_fusion): Sequential(
      (0): Conv2d(512, 256, kernel_size=(1, 1), stride=(1, 1))
      (1): SyncBatchNorm(256, eps=1e-05, momentum=0.1, affine=True, track_running_stats=True)
      (2): ReLU(inplace=True)
    )
  )
  (wavelet_c4): ImprovedWaveletEnhancement(
    (freq_allocator): AdaptiveFrequencyAllocation(
      (freq_allocator): Sequential(
        (0): AdaptiveAvgPool2d(output_size=1)
        (1): Conv2d(512, 128, kernel_size=(1, 1), stride=(1, 1))
        (2): ReLU(inplace=True)
        (3): Conv2d(128, 2, kernel_size=(1, 1), stride=(1, 1))
        (4): Softmax(dim=1)
      )
    )
    (dwt): SimplifiedDWT()
    (hf_enhancer): Sequential(
      (0): Conv2d(512, 128, kernel_size=(1, 1), stride=(1, 1))
      (1): SyncBatchNorm(128, eps=1e-05, momentum=0.1, affine=True, track_running_stats=True)
      (2): ReLU(inplace=True)
      (3): Conv2d(128, 512, kernel_size=(3, 3), stride=(1, 1), padding=(1, 1))
      (4): SyncBatchNorm(512, eps=1e-05, momentum=0.1, affine=True, track_running_stats=True)
      (5): Sigmoid()
    )
    (lf_enhancer): Sequential(
      (0): Conv2d(512, 128, kernel_size=(1, 1), stride=(1, 1))
      (1): SyncBatchNorm(128, eps=1e-05, momentum=0.1, affine=True, track_running_stats=True)
      (2): ReLU(inplace=True)
      (3): Conv2d(128, 512, kernel_size=(3, 3), stride=(1, 1), padding=(1, 1))
      (4): SyncBatchNorm(512, eps=1e-05, momentum=0.1, affine=True, track_running_stats=True)
      (5): Sigmoid()
    )
    (feature_fusion): Sequential(
      (0): Conv2d(1024, 512, kernel_size=(1, 1), stride=(1, 1))
      (1): SyncBatchNorm(512, eps=1e-05, momentum=0.1, affine=True, track_running_stats=True)
      (2): ReLU(inplace=True)
    )
  )
  (wavelet_c5): ImprovedWaveletEnhancement(
    (freq_allocator): AdaptiveFrequencyAllocation(
      (freq_allocator): Sequential(
        (0): AdaptiveAvgPool2d(output_size=1)
        (1): Conv2d(1024, 256, kernel_size=(1, 1), stride=(1, 1))
        (2): ReLU(inplace=True)
        (3): Conv2d(256, 2, kernel_size=(1, 1), stride=(1, 1))
        (4): Softmax(dim=1)
      )
    )
    (dwt): SimplifiedDWT()
    (hf_enhancer): Sequential(
      (0): Conv2d(1024, 256, kernel_size=(1, 1), stride=(1, 1))
      (1): SyncBatchNorm(256, eps=1e-05, momentum=0.1, affine=True, track_running_stats=True)
      (2): ReLU(inplace=True)
      (3): Conv2d(256, 1024, kernel_size=(3, 3), stride=(1, 1), padding=(1, 1))
      (4): SyncBatchNorm(1024, eps=1e-05, momentum=0.1, affine=True, track_running_stats=True)
      (5): Sigmoid()
    )
    (lf_enhancer): Sequential(
      (0): Conv2d(1024, 256, kernel_size=(1, 1), stride=(1, 1))
      (1): SyncBatchNorm(256, eps=1e-05, momentum=0.1, affine=True, track_running_stats=True)
      (2): ReLU(inplace=True)
      (3): Conv2d(256, 1024, kernel_size=(3, 3), stride=(1, 1), padding=(1, 1))
      (4): SyncBatchNorm(1024, eps=1e-05, momentum=0.1, affine=True, track_running_stats=True)
      (5): Sigmoid()
    )
    (feature_fusion): Sequential(
      (0): Conv2d(2048, 1024, kernel_size=(1, 1), stride=(1, 1))
      (1): SyncBatchNorm(1024, eps=1e-05, momentum=0.1, affine=True, track_running_stats=True)
      (2): ReLU(inplace=True)
    )
  )
  (featurePyramid_net): BiFPN(
    (conv6_up): SeparableConvBlock(
      (depthwise_conv): Conv2dStaticSamePadding(
        (conv): Conv2d(256, 256, kernel_size=(3, 3), stride=(1, 1), groups=256, bias=False)
      )
      (pointwise_conv): Conv2dStaticSamePadding(
        (conv): Conv2d(256, 256, kernel_size=(1, 1), stride=(1, 1))
      )
      (bn): SyncBatchNorm(256, eps=0.001, momentum=0.01, affine=True, track_running_stats=True)
    )
    (conv5_up): SeparableConvBlock(
      (depthwise_conv): Conv2dStaticSamePadding(
        (conv): Conv2d(256, 256, kernel_size=(3, 3), stride=(1, 1), groups=256, bias=False)
      )
      (pointwise_conv): Conv2dStaticSamePadding(
        (conv): Conv2d(256, 256, kernel_size=(1, 1), stride=(1, 1))
      )
      (bn): SyncBatchNorm(256, eps=0.001, momentum=0.01, affine=True, track_running_stats=True)
    )
    (conv4_up): SeparableConvBlock(
      (depthwise_conv): Conv2dStaticSamePadding(
        (conv): Conv2d(256, 256, kernel_size=(3, 3), stride=(1, 1), groups=256, bias=False)
      )
      (pointwise_conv): Conv2dStaticSamePadding(
        (conv): Conv2d(256, 256, kernel_size=(1, 1), stride=(1, 1))
      )
      (bn): SyncBatchNorm(256, eps=0.001, momentum=0.01, affine=True, track_running_stats=True)
    )
    (conv3_up): SeparableConvBlock(
      (depthwise_conv): Conv2dStaticSamePadding(
        (conv): Conv2d(256, 256, kernel_size=(3, 3), stride=(1, 1), groups=256, bias=False)
      )
      (pointwise_conv): Conv2dStaticSamePadding(
        (conv): Conv2d(256, 256, kernel_size=(1, 1), stride=(1, 1))
      )
      (bn): SyncBatchNorm(256, eps=0.001, momentum=0.01, affine=True, track_running_stats=True)
    )
    (conv4_down): SeparableConvBlock(
      (depthwise_conv): Conv2dStaticSamePadding(
        (conv): Conv2d(256, 256, kernel_size=(3, 3), stride=(1, 1), groups=256, bias=False)
      )
      (pointwise_conv): Conv2dStaticSamePadding(
        (conv): Conv2d(256, 256, kernel_size=(1, 1), stride=(1, 1))
      )
      (bn): SyncBatchNorm(256, eps=0.001, momentum=0.01, affine=True, track_running_stats=True)
    )
    (conv5_down): SeparableConvBlock(
      (depthwise_conv): Conv2dStaticSamePadding(
        (conv): Conv2d(256, 256, kernel_size=(3, 3), stride=(1, 1), groups=256, bias=False)
      )
      (pointwise_conv): Conv2dStaticSamePadding(
        (conv): Conv2d(256, 256, kernel_size=(1, 1), stride=(1, 1))
      )
      (bn): SyncBatchNorm(256, eps=0.001, momentum=0.01, affine=True, track_running_stats=True)
    )
    (conv6_down): SeparableConvBlock(
      (depthwise_conv): Conv2dStaticSamePadding(
        (conv): Conv2d(256, 256, kernel_size=(3, 3), stride=(1, 1), groups=256, bias=False)
      )
      (pointwise_conv): Conv2dStaticSamePadding(
        (conv): Conv2d(256, 256, kernel_size=(1, 1), stride=(1, 1))
      )
      (bn): SyncBatchNorm(256, eps=0.001, momentum=0.01, affine=True, track_running_stats=True)
    )
    (conv7_down): SeparableConvBlock(
      (depthwise_conv): Conv2dStaticSamePadding(
        (conv): Conv2d(256, 256, kernel_size=(3, 3), stride=(1, 1), groups=256, bias=False)
      )
      (pointwise_conv): Conv2dStaticSamePadding(
        (conv): Conv2d(256, 256, kernel_size=(1, 1), stride=(1, 1))
      )
      (bn): SyncBatchNorm(256, eps=0.001, momentum=0.01, affine=True, track_running_stats=True)
    )
    (p6_upsample): Upsample(scale_factor=2.0, mode='nearest')
    (p5_upsample): Upsample(scale_factor=2.0, mode='nearest')
    (p4_upsample): Upsample(scale_factor=2.0, mode='nearest')
    (p3_upsample): Upsample(scale_factor=2.0, mode='nearest')
…
      (pool): MaxPool2d(kernel_size=3, stride=2, padding=0, dilation=1, ceil_mode=False)
    )
    (p5_downsample): MaxPool2dStaticSamePadding(
      (pool): MaxPool2d(kernel_size=3, stride=2, padding=0, dilation=1, ceil_mode=False)
    )
    (p6_downsample): MaxPool2dStaticSamePadding(
      (pool): MaxPool2d(kernel_size=3, stride=2, padding=0, dilation=1, ceil_mode=False)
    )
    (p7_downsample): MaxPool2dStaticSamePadding(
      (pool): MaxPool2d(kernel_size=3, stride=2, padding=0, dilation=1, ceil_mode=False)
    )
    (swish): MemoryEfficientSwish()
    (p5_down_channel): Sequential(
      (0): Conv2dStaticSamePadding(
        (conv): Conv2d(1024, 256, kernel_size=(1, 1), stride=(1, 1))
      )
      (1): SyncBatchNorm(256, eps=0.001, momentum=0.01, affine=True, track_running_stats=True)
    )
    (p4_down_channel): Sequential(
      (0): Conv2dStaticSamePadding(
        (conv): Conv2d(512, 256, kernel_size=(1, 1), stride=(1, 1))
      )
      (1): SyncBatchNorm(256, eps=0.001, momentum=0.01, affine=True, track_running_stats=True)
    )
    (p3_down_channel): Sequential(
      (0): Conv2dStaticSamePadding(
        (conv): Conv2d(256, 256, kernel_size=(1, 1), stride=(1, 1))
      )
      (1): SyncBatchNorm(256, eps=0.001, momentum=0.01, affine=True, track_running_stats=True)
    )
    (p5_to_p6): Sequential(
      (0): Conv2dStaticSamePadding(
        (conv): Conv2d(1024, 256, kernel_size=(1, 1), stride=(1, 1))
      )
      (1): SyncBatchNorm(256, eps=0.001, momentum=0.01, affine=True, track_running_stats=True)
      (2): MaxPool2dStaticSamePadding(
        (pool): MaxPool2d(kernel_size=3, stride=2, padding=0, dilation=1, ceil_mode=False)
      )
    )
    (p6_to_p7): Sequential(
      (0): MaxPool2dStaticSamePadding(
        (pool): MaxPool2d(kernel_size=3, stride=2, padding=0, dilation=1, ceil_mode=False)
      )
    )
    (p4_down_channel_2): Sequential(
      (0): Conv2dStaticSamePadding(
        (conv): Conv2d(512, 256, kernel_size=(1, 1), stride=(1, 1))
      )
      (1): SyncBatchNorm(256, eps=0.001, momentum=0.01, affine=True, track_running_stats=True)
    )
    (p5_down_channel_2): Sequential(
      (0): Conv2dStaticSamePadding(
        (conv): Conv2d(1024, 256, kernel_size=(1, 1), stride=(1, 1))
      )
      (1): SyncBatchNorm(256, eps=0.001, momentum=0.01, affine=True, track_running_stats=True)
    )
    (p6_w1_relu): ReLU()
    (p5_w1_relu): ReLU()
    (p4_w1_relu): ReLU()
    (p3_w1_relu): ReLU()
    (p4_w2_relu): ReLU()
    (p5_w2_relu): ReLU()
    (p6_w2_relu): ReLU()
    (p7_w2_relu): ReLU()
  )
  (predict_head): AdvancedPredictHead(
    (bifpn_fusion): FusionBlock(
      (conv1): Conv2d(1280, 256, kernel_size=(1, 1), stride=(1, 1), bias=False)
      (norm1): LayerNorm()
      (relu1): ReLU(inplace=True)
      (conv2): Conv2d(256, 256, kernel_size=(3, 3), stride=(1, 1), padding=(1, 1), bias=False)
      (norm2): LayerNorm()
      (relu2): ReLU(inplace=True)
    )
    (project_fused_bifpn_for_c2): Conv2d(256, 128, kernel_size=(1, 1), stride=(1, 1), bias=False)
    (project_c2_skip): Conv2d(128, 128, kernel_size=(1, 1), stride=(1, 1), bias=False)
    (fusion_c2_level): FusionBlock(
      (conv1): Conv2d(256, 256, kernel_size=(1, 1), stride=(1, 1), bias=False)
      (norm1): LayerNorm()
      (relu1): ReLU(inplace=True)
      (conv2): Conv2d(256, 256, kernel_size=(3, 3), stride=(1, 1), padding=(1, 1), bias=False)
      (norm2): LayerNorm()
      (relu2): ReLU(inplace=True)
    )
    (dropout): Dropout(p=0.1, inplace=False)
    (final_predict_conv): Conv2d(256, 1, kernel_size=(1, 1), stride=(1, 1))
  )
  (classification_head): Sequential(
    (0): AdaptiveAvgPool2d(output_size=1)
    (1): Flatten(start_dim=1, end_dim=-1)
    (2): Linear(in_features=512, out_features=256, bias=True)
    (3): ReLU()
    (4): Dropout(p=0.1, inplace=False)
    (5): Linear(in_features=256, out_features=1, bias=True)
  )
  (focal_loss): FocalLoss()
  (dice_loss): DiceLoss()
  (classification_loss_fn): BCEWithLogitsLoss()
  (consistency_loss_fn): BCEWithLogitsLoss()
)
[21:45:53.141650] Base LR: 1.00e-03
[21:45:53.141671] Actual LR: 1.00e-05
[21:45:53.141686] Accumulate grad iterations: 1
[21:45:53.141700] Effective batch size: 2
[21:45:53.330190] Using optimizer: AdamW
…
